…
[09/19 12:54:38] MSRAction3D WARNING: Could not init from pretrain/pretrain_PSTTransformer_MSRAction3D_24_frames/checkpoint/model_best.pth: ['module.classifier.0.weight', 'module.classifier.0.bias', 'module.classifier.1.weight', 'module.classifier.1.bias', 'module.classifier.4.weight', 'module.classifier.4.bias']
[09/19 12:54:38] MSRAction3D WARNING: Unused keys in pretrain/pretrain_PSTTransformer_MSRAction3D_24_frames/checkpoint/model_best.pth: []
[09/19 12:54:39] MSRAction3D INFO: DistributedDataParallel(
  (module): PSTTransformer(
    (tube_embedding): P4DConv(
      (conv_d): Sequential(
        (0): Conv2d(4, 80, kernel_size=(1, 1), stride=(1, 1), bias=False)
      )
      (mlp): Sequential()
    )
    (transformer): Transformer(
      (layers): ModuleList(
        (0): ModuleList(
          (0): Attention(
            (norm): LayerNorm((80,), eps=1e-05, elementwise_affine=True)
            (to_qkv): Linear(in_features=80, out_features=240, bias=False)
            (spatial_op): Linear(in_features=3, out_features=40, bias=False)
            (to_out): Sequential(
              (0): Linear(in_features=80, out_features=80, bias=True)
              (1): GELU()
              (2): Dropout(p=0.0, inplace=False)
            )
          )
          (1): FeedForward(
            (net): Sequential(
              (0): LayerNorm((80,), eps=1e-05, elementwise_affine=True)
              (1): Linear(in_features=80, out_features=160, bias=True)
              (2): GELU()
              (3): Dropout(p=0.0, inplace=False)
              (4): Linear(in_features=160, out_features=80, bias=True)
              (5): Dropout(p=0.0, inplace=False)
            )
          )
        )
        (1): ModuleList(
          (0): Attention(
            (norm): LayerNorm((80,), eps=1e-05, elementwise_affine=True)
            (to_qkv): Linear(in_features=80, out_features=240, bias=False)
            (spatial_op): Linear(in_features=3, out_features=40, bias=False)
            (to_out): Sequential(
              (0): Linear(in_features=80, out_features=80, bias=True)
              (1): GELU()
              (2): Dropout(p=0.0, inplace=False)
            )
          )
          (1): FeedForward(
            (net): Sequential(
              (0): LayerNorm((80,), eps=1e-05, elementwise_affine=True)
              (1): Linear(in_features=80, out_features=160, bias=True)
              (2): GELU()
              (3): Dropout(p=0.0, inplace=False)
              (4): Linear(in_features=160, out_features=80, bias=True)
              (5): Dropout(p=0.0, inplace=False)
            )
          )
        )
        (2): ModuleList(
          (0): Attention(
            (norm): LayerNorm((80,), eps=1e-05, elementwise_affine=True)
            (to_qkv): Linear(in_features=80, out_features=240, bias=False)
            (spatial_op): Linear(in_features=3, out_features=40, bias=False)
            (to_out): Sequential(
              (0): Linear(in_features=80, out_features=80, bias=True)
              (1): GELU()
              (2): Dropout(p=0.0, inplace=False)
            )
          )
          (1): FeedForward(
            (net): Sequential(
              (0): LayerNorm((80,), eps=1e-05, elementwise_affine=True)
              (1): Linear(in_features=80, out_features=160, bias=True)
              (2): GELU()
              (3): Dropout(p=0.0, inplace=False)
              (4): Linear(in_features=160, out_features=80, bias=True)
              (5): Dropout(p=0.0, inplace=False)
            )
          )
        )
        (3): ModuleList(
          (0): Attention(
            (norm): LayerNorm((80,), eps=1e-05, elementwise_affine=True)
            (to_qkv): Linear(in_features=80, out_features=240, bias=False)
            (spatial_op): Linear(in_features=3, out_features=40, bias=False)
            (to_out): Sequential(
              (0): Linear(in_features=80, out_features=80, bias=True)
              (1): GELU()
              (2): Dropout(p=0.0, inplace=False)
            )
          )
          (1): FeedForward(
            (net): Sequential(
              (0): LayerNorm((80,), eps=1e-05, elementwise_affine=True)
              (1): Linear(in_features=80, out_features=160, bias=True)
              (2): GELU()
              (3): Dropout(p=0.0, inplace=False)
              (4): Linear(in_features=160, out_features=80, bias=True)
              (5): Dropout(p=0.0, inplace=False)
            )
          )
        )
        (4): ModuleList(
          (0): Attention(
            (norm): LayerNorm((80,), eps=1e-05, elementwise_affine=True)
            (to_qkv): Linear(in_features=80, out_features=240, bias=False)
            (spatial_op): Linear(in_features=3, out_features=40, bias=False)
            (to_out): Sequential(
              (0): Linear(in_features=80, out_features=80, bias=True)
              (1): GELU()
              (2): Dropout(p=0.0, inplace=False)
            )
          )
          (1): FeedForward(
            (net): Sequential(
              (0): LayerNorm((80,), eps=1e-05, elementwise_affine=True)
              (1): Linear(in_features=80, out_features=160, bias=True)
              (2): GELU()
              (3): Dropout(p=0.0, inplace=False)
              (4): Linear(in_features=160, out_features=80, bias=True)
              (5): Dropout(p=0.0, inplace=False)
            )
          )
        )
      )
    )
    (classifier): Sequential(
      (0): LayerNorm((80,), eps=1e-05, elementwise_affine=True)
      (1): Linear(in_features=80, out_features=160, bias=True)
      (2): GELU()
      (3): Dropout(p=0.0, inplace=False)
      (4): Linear(in_features=160, out_features=20, bias=True)
    )
  )
)
[09/19 12:54:39] MSRAction3D INFO: ('FLOPs: 0.2236G', 'Params: 0.2765M')
[09/19 12:54:39] MSRAction3D INFO: Current stage is finetune
[09/19 12:54:39] MSRAction3D INFO: Start training
[09/19 12:54:41] MSRAction3D INFO: Epoch: [0]  [  0/160]  eta: 0:05:11  lr: 2.0000000000000002e-07  clips/s: 71.263  loss: 3.0033 (3.0033)  acc1: 7.1429 (7.1429)  acc5: 14.2857 (14.2857)  time: 1.9456  data: 1.7473  max mem: 1625
…
